…
I1028 15:52:43.208612  9572 net.cpp:339] The NetState phase (0) differed from the phase (1) specified by a rule in layer accuracy
I1028 15:52:43.208612  9572 net.cpp:50] Initializing net from parameters: 
name: "cifar-10"
state {
  phase: TRAIN
}
layer {
  name: "data"
  type: "Data"
  top: "data"
  top: "label"
  include {
    phase: TRAIN
  }
  transform_param {
    mean_file: "F:/caffe/caffe-windows-master/examples/cifar10/trainmean.binaryproto"
  }
  data_param {
    source: "F:/caffe/caffe-windows-master/examples/cifar10/cifar10_train_leveldb"
    batch_size: 100
    backend: LEVELDB
  }
}
layer {
  name: "conv1"
  type: "Convolution"
  bottom: "data"
  top: "conv1"
  param {
    lr_mult: 1
  }
  param {
    lr_mult: 2
  }
  convolution_param {
    num_output: 32
    pad: 2
    kernel_size: 5
    stride: 1
    weight_filler {
      type: "gaussian"
      std: 0.0001
    }
    bias_filler {
      type: "constant"
      value: 0
    }
  }
}
layer {
  name: "pool1"
  type: "Pooling"
  bottom: "conv1"
  top: "pool1"
  pooling_param {
    pool: MAX
    kernel_size: 3
    stride: 2
  }
}
layer {
  name: "relu1"
  type: "ReLU"
  bottom: "pool1"
  top: "relu1"
}
layer {
  name: "conv2"
  type: "Convolution"
  bottom: "relu1"
  top: "conv2"
  param {
    lr_mult: 1
  }
  param {
    lr_mult: 2
  }
  convolution_param {
    num_output: 32
    pad: 2
    kernel_size: 5
    stride: 1
    weight_filler {
      type: "gaussian"
      std: 0.01
    }
    bias_filler {
      type: "constant"
      value: 0
    }
  }
}
layer {
  name: "relu2"
  type: "ReLU"
  bottom: "conv2"
  top: "relu2"
}
layer {
  name: "pool2"
  type: "Pooling"
  bottom: "relu2"
  top: "pool2"
  pooling_param {
    pool: AVE
    kernel_size: 3
    stride: 2
  }
}
layer {
  name: "conv3"
  type: "Convolution"
  bottom: "pool2"
  top: "conv3"
  param {
    lr_mult: 1
  }
  param {
    lr_mult: 2
  }
  convolution_param {
    num_output: 64
    pad: 2
    kernel_size: 5
    stride: 1
    weight_filler {
      type: "gaussian"
      std: 0.01
    }
    bias_filler {
      type: "constant"
      value: 0
    }
  }
}
layer {
  name: "relu3"
  type: "ReLU"
  bottom: "conv3"
  top: "relu3"
}
layer {
  name: "pool3"
  type: "Pooling"
  bottom: "relu3"
  top: "pool3"
  pooling_param {
    pool: AVE
    kernel_size: 3
    stride: 2
  }
}
layer {
  name: "ip1"
  type: "InnerProduct"
  bottom: "pool3"
  top: "ip1"
  param {
    lr_mult: 1
  }
  param {
    lr_mult: 2
  }
  inner_product_param {
    num_output: 64
    weight_filler {
      type: "gaussian"
      std: 0.1
    }
    bias_filler {
      type: "constant"
    }
  }
}
layer {
  name: "ip2"
  type: "InnerProduct"
  bottom: "ip1"
  top: "ip2"
  param {
    lr_mult: 1
  }
  param {
    lr_mult: 2
  }
  inner_product_param {
    num_output: 10
    weight_filler {
      type: "gaussian"
      std: 0.1
    }
    bias_filler {
      type: "constant"
    }
  }
}
layer {
  name: "loss"
  type: "SoftmaxWithLoss"
  bottom: "ip2"
  bottom: "label"
  top: "loss"
}
I1028 15:52:43.231613  9572 layer_factory.hpp:76] Creating layer data
I1028 15:52:43.232614  9572 net.cpp:110] Creating Layer data
I1028 15:52:43.232614  9572 net.cpp:433] data -> data
I1028 15:52:43.232614  9572 net.cpp:433] data -> label
I1028 15:52:43.233613  9572 data_transformer.cpp:23] Loading mean file from: F:/caffe/caffe-windows-master/examples/cifar10/trainmean.binaryproto
I1028 15:52:43.238615 10224 db_leveldb.cpp:17] Opened leveldb F:/caffe/caffe-windows-master/examples/cifar10/cifar10_train_leveldb
I1028 15:52:43.258615  9572 data_layer.cpp:44] output data size: 100,3,32,32
I1028 15:52:43.263615  9572 net.cpp:155] Setting up data
I1028 15:52:43.264616  9572 net.cpp:163] Top shape: 100 3 32 32 (307200)
I1028 15:52:43.265615  9572 net.cpp:163] Top shape: 100 (100)
I1028 15:52:43.265615  9572 layer_factory.hpp:76] Creating layer conv1
I1028 15:52:43.266615  9572 net.cpp:110] Creating Layer conv1
I1028 15:52:43.266615  9572 net.cpp:477] conv1 <- data
I1028 15:52:43.267616  9572 net.cpp:433] conv1 -> conv1
I1028 15:52:43.385622  9572 net.cpp:155] Setting up conv1
I1028 15:52:43.385622  9572 net.cpp:163] Top shape: 100 32 32 32 (3276800)
I1028 15:52:43.386622  9572 layer_factory.hpp:76] Creating layer pool1
I1028 15:52:43.387622  9572 net.cpp:110] Creating Layer pool1
I1028 15:52:43.388622  9572 net.cpp:477] pool1 <- conv1
I1028 15:52:43.388622  9572 net.cpp:433] pool1 -> pool1
I1028 15:52:43.389622  9572 net.cpp:155] Setting up pool1
I1028 15:52:43.389622  9572 net.cpp:163] Top shape: 100 32 16 16 (819200)
I1028 15:52:43.390622  9572 layer_factory.hpp:76] Creating layer relu1
I1028 15:52:43.390622  9572 net.cpp:110] Creating Layer relu1
I1028 15:52:43.390622  9572 net.cpp:477] relu1 <- pool1
I1028 15:52:43.391623  9572 net.cpp:433] relu1 -> relu1
I1028 15:52:43.392623  9572 net.cpp:155] Setting up relu1
I1028 15:52:43.392623  9572 net.cpp:163] Top shape: 100 32 16 16 (819200)
I1028 15:52:43.393623  9572 layer_factory.hpp:76] Creating layer conv2
I1028 15:52:43.393623  9572 net.cpp:110] Creating Layer conv2
I1028 15:52:43.393623  9572 net.cpp:477] conv2 <- relu1
I1028 15:52:43.393623  9572 net.cpp:433] conv2 -> conv2
I1028 15:52:43.397624  9572 net.cpp:155] Setting up conv2
I1028 15:52:43.397624  9572 net.cpp:163] Top shape: 100 32 16 16 (819200)
I1028 15:52:43.398623  9572 layer_factory.hpp:76] Creating layer relu2
I1028 15:52:43.398623  9572 net.cpp:110] Creating Layer relu2
I1028 15:52:43.398623  9572 net.cpp:477] relu2 <- conv2
I1028 15:52:43.399623  9572 net.cpp:433] relu2 -> relu2
I1028 15:52:43.400624  9572 net.cpp:155] Setting up relu2
I1028 15:52:43.400624  9572 net.cpp:163] Top shape: 100 32 16 16 (819200)
I1028 15:52:43.400624  9572 layer_factory.hpp:76] Creating layer pool2
I1028 15:52:43.401623  9572 net.cpp:110] Creating Layer pool2
I1028 15:52:43.401623  9572 net.cpp:477] pool2 <- relu2
I1028 15:52:43.401623  9572 net.cpp:433] pool2 -> pool2
I1028 15:52:43.403623  9572 net.cpp:155] Setting up pool2
I1028 15:52:43.403623  9572 net.cpp:163] Top shape: 100 32 8 8 (204800)
I1028 15:52:43.403623  9572 layer_factory.hpp:76] Creating layer conv3
I1028 15:52:43.403623  9572 net.cpp:110] Creating Layer conv3
I1028 15:52:43.404623  9572 net.cpp:477] conv3 <- pool2
I1028 15:52:43.404623  9572 net.cpp:433] conv3 -> conv3
I1028 15:52:43.408623  9572 net.cpp:155] Setting up conv3
I1028 15:52:43.408623  9572 net.cpp:163] Top shape: 100 64 8 8 (409600)
I1028 15:52:43.408623  9572 layer_factory.hpp:76] Creating layer relu3
I1028 15:52:43.409625  9572 net.cpp:110] Creating Layer relu3
I1028 15:52:43.409625  9572 net.cpp:477] relu3 <- conv3
I1028 15:52:43.409625  9572 net.cpp:433] relu3 -> relu3
I1028 15:52:43.411624  9572 net.cpp:155] Setting up relu3
I1028 15:52:43.411624  9572 net.cpp:163] Top shape: 100 64 8 8 (409600)
I1028 15:52:43.411624  9572 layer_factory.hpp:76] Creating layer pool3
I1028 15:52:43.411624  9572 net.cpp:110] Creating Layer pool3
I1028 15:52:43.412624  9572 net.cpp:477] pool3 <- relu3
I1028 15:52:43.412624  9572 net.cpp:433] pool3 -> pool3
I1028 15:52:43.413625  9572 net.cpp:155] Setting up pool3
I1028 15:52:43.413625  9572 net.cpp:163] Top shape: 100 64 4 4 (102400)
I1028 15:52:43.414624  9572 layer_factory.hpp:76] Creating layer ip1
I1028 15:52:43.414624  9572 net.cpp:110] Creating Layer ip1
I1028 15:52:43.414624  9572 net.cpp:477] ip1 <- pool3
I1028 15:52:43.414624  9572 net.cpp:433] ip1 -> ip1
I1028 15:52:43.415624  9572 net.cpp:155] Setting up ip1
I1028 15:52:43.415624  9572 net.cpp:163] Top shape: 100 64 (6400)
I1028 15:52:43.416625  9572 layer_factory.hpp:76] Creating layer ip2
I1028 15:52:43.416625  9572 net.cpp:110] Creating Layer ip2
I1028 15:52:43.416625  9572 net.cpp:477] ip2 <- ip1
I1028 15:52:43.416625  9572 net.cpp:433] ip2 -> ip2
I1028 15:52:43.416625  9572 net.cpp:155] Setting up ip2
I1028 15:52:43.416625  9572 net.cpp:163] Top shape: 100 10 (1000)
I1028 15:52:43.417624  9572 layer_factory.hpp:76] Creating layer loss
I1028 15:52:43.417624  9572 net.cpp:110] Creating Layer loss
I1028 15:52:43.417624  9572 net.cpp:477] loss <- ip2
I1028 15:52:43.417624  9572 net.cpp:477] loss <- label
I1028 15:52:43.417624  9572 net.cpp:433] loss -> loss
I1028 15:52:43.417624  9572 layer_factory.hpp:76] Creating layer loss
I1028 15:52:43.419625  9572 net.cpp:155] Setting up loss
…
I1028 15:52:43.422624  9572 net.cpp:339] The NetState phase (1) differed from the phase (0) specified by a rule in layer data
I1028 15:52:43.422624  9572 net.cpp:50] Initializing net from parameters: 
name: "cifar-10"
state {
  phase: TEST
}
layer {
  name: "data"
  type: "Data"
  top: "data"
  top: "label"
  include {
    phase: TEST
  }
  transform_param {
    mean_file: "F:/caffe/caffe-windows-master/examples/cifar10/testmean.binaryproto"
  }
  data_param {
    source: "F:/caffe/caffe-windows-master/examples/cifar10/cifar10_test_leveldb"
    batch_size: 100
    backend: LEVELDB
  }
}
layer {
  name: "conv1"
  type: "Convolution"
  bottom: "data"
  top: "conv1"
  param {
    lr_mult: 1
  }
  param {
    lr_mult: 2
  }
  convolution_param {
    num_output: 32
    pad: 2
    kernel_size: 5
    stride: 1
    weight_filler {
      type: "gaussian"
      std: 0.0001
    }
    bias_filler {
      type: "constant"
      value: 0
    }
  }
}
layer {
  name: "pool1"
  type: "Pooling"
  bottom: "conv1"
  top: "pool1"
  pooling_param {
    pool: MAX
    kernel_size: 3
    stride: 2
  }
}
layer {
  name: "relu1"
  type: "ReLU"
  bottom: "pool1"
  top: "relu1"
}
layer {
  name: "conv2"
  type: "Convolution"
  bottom: "relu1"
  top: "conv2"
  param {
    lr_mult: 1
  }
  param {
    lr_mult: 2
  }
  convolution_param {
    num_output: 32
    pad: 2
    kernel_size: 5
    stride: 1
    weight_filler {
      type: "gaussian"
      std: 0.01
    }
    bias_filler {
      type: "constant"
      value: 0
    }
  }
}
layer {
  name: "relu2"
  type: "ReLU"
  bottom: "conv2"
  top: "relu2"
}
layer {
  name: "pool2"
  type: "Pooling"
  bottom: "relu2"
  top: "pool2"
  pooling_param {
    pool: AVE
    kernel_size: 3
    stride: 2
  }
}
layer {
  name: "conv3"
  type: "Convolution"
  bottom: "pool2"
  top: "conv3"
  param {
    lr_mult: 1
  }
  param {
    lr_mult: 2
  }
  convolution_param {
    num_output: 64
    pad: 2
    kernel_size: 5
    stride: 1
    weight_filler {
      type: "gaussian"
      std: 0.01
    }
    bias_filler {
      type: "constant"
      value: 0
    }
  }
}
layer {
  name: "relu3"
  type: "ReLU"
  bottom: "conv3"
  top: "relu3"
}
layer {
  name: "pool3"
  type: "Pooling"
  bottom: "relu3"
  top: "pool3"
  pooling_param {
    pool: AVE
    kernel_size: 3
    stride: 2
  }
}
layer {
  name: "ip1"
  type: "InnerProduct"
  bottom: "pool3"
  top: "ip1"
  param {
    lr_mult: 1
  }
  param {
    lr_mult: 2
  }
  inner_product_param {
    num_output: 64
    weight_filler {
      type: "gaussian"
      std: 0.1
    }
    bias_filler {
      type: "constant"
    }
  }
}
layer {
  name: "ip2"
  type: "InnerProduct"
  bottom: "ip1"
  top: "ip2"
  param {
    lr_mult: 1
  }
  param {
    lr_mult: 2
  }
  inner_product_param {
    num_output: 10
    weight_filler {
      type: "gaussian"
      std: 0.1
    }
    bias_filler {
      type: "constant"
    }
  }
}
layer {
  name: "accuracy"
  type: "Accuracy"
  bottom: "ip2"
  bottom: "label"
  top: "accuracy"
  include {
    phase: TEST
  }
}
layer {
  name: "loss"
  type: "SoftmaxWithLoss"
  bottom: "ip2"
  bottom: "label"
  top: "loss"
}
I1028 15:52:43.433625  9572 layer_factory.hpp:76] Creating layer data
I1028 15:52:43.433625  9572 net.cpp:110] Creating Layer data
I1028 15:52:43.433625  9572 net.cpp:433] data -> data
I1028 15:52:43.433625  9572 net.cpp:433] data -> label
I1028 15:52:43.434625  9572 data_transformer.cpp:23] Loading mean file from: F:/caffe/caffe-windows-master/examples/cifar10/testmean.binaryproto
I1028 15:52:43.439625  8980 db_leveldb.cpp:17] Opened leveldb F:/caffe/caffe-windows-master/examples/cifar10/cifar10_test_leveldb
I1028 15:52:43.440625  9572 data_layer.cpp:44] output data size: 100,3,32,32
I1028 15:52:43.445626  9572 net.cpp:155] Setting up data
I1028 15:52:43.446626  9572 net.cpp:163] Top shape: 100 3 32 32 (307200)
I1028 15:52:43.446626  9572 net.cpp:163] Top shape: 100 (100)
I1028 15:52:43.446626  9572 layer_factory.hpp:76] Creating layer label_data_1_split
I1028 15:52:43.447626  9572 net.cpp:110] Creating Layer label_data_1_split
I1028 15:52:43.447626  9572 net.cpp:477] label_data_1_split <- label
I1028 15:52:43.447626  9572 net.cpp:433] label_data_1_split -> label_data_1_split_0
I1028 15:52:43.448626  9572 net.cpp:433] label_data_1_split -> label_data_1_split_1
I1028 15:52:43.448626  9572 net.cpp:155] Setting up label_data_1_split
I1028 15:52:43.448626  9572 net.cpp:163] Top shape: 100 (100)
I1028 15:52:43.448626  9572 net.cpp:163] Top shape: 100 (100)
I1028 15:52:43.449626  9572 layer_factory.hpp:76] Creating layer conv1
I1028 15:52:43.449626  9572 net.cpp:110] Creating Layer conv1
I1028 15:52:43.449626  9572 net.cpp:477] conv1 <- data
I1028 15:52:43.449626  9572 net.cpp:433] conv1 -> conv1
I1028 15:52:43.453626  9572 net.cpp:155] Setting up conv1
I1028 15:52:43.454627  9572 net.cpp:163] Top shape: 100 32 32 32 (3276800)
I1028 15:52:43.454627  9572 layer_factory.hpp:76] Creating layer pool1
I1028 15:52:43.454627  9572 net.cpp:110] Creating Layer pool1
I1028 15:52:43.454627  9572 net.cpp:477] pool1 <- conv1
I1028 15:52:43.454627  9572 net.cpp:433] pool1 -> pool1
I1028 15:52:43.455626  9572 net.cpp:155] Setting up pool1
I1028 15:52:43.455626  9572 net.cpp:163] Top shape: 100 32 16 16 (819200)
I1028 15:52:43.455626  9572 layer_factory.hpp:76] Creating layer relu1
I1028 15:52:43.456626  9572 net.cpp:110] Creating Layer relu1
I1028 15:52:43.456626  9572 net.cpp:477] relu1 <- pool1
I1028 15:52:43.456626  9572 net.cpp:433] relu1 -> relu1
I1028 15:52:43.457626  9572 net.cpp:155] Setting up relu1
I1028 15:52:43.457626  9572 net.cpp:163] Top shape: 100 32 16 16 (819200)
I1028 15:52:43.457626  9572 layer_factory.hpp:76] Creating layer conv2
I1028 15:52:43.457626  9572 net.cpp:110] Creating Layer conv2
I1028 15:52:43.458626  9572 net.cpp:477] conv2 <- relu1
I1028 15:52:43.458626  9572 net.cpp:433] conv2 -> conv2
I1028 15:52:43.461627  9572 net.cpp:155] Setting up conv2
I1028 15:52:43.461627  9572 net.cpp:163] Top shape: 100 32 16 16 (819200)
I1028 15:52:43.461627  9572 layer_factory.hpp:76] Creating layer relu2
I1028 15:52:43.462627  9572 net.cpp:110] Creating Layer relu2
I1028 15:52:43.462627  9572 net.cpp:477] relu2 <- conv2
I1028 15:52:43.462627  9572 net.cpp:433] relu2 -> relu2
I1028 15:52:43.463628  9572 net.cpp:155] Setting up relu2
I1028 15:52:43.464627  9572 net.cpp:163] Top shape: 100 32 16 16 (819200)
I1028 15:52:43.464627  9572 layer_factory.hpp:76] Creating layer pool2
I1028 15:52:43.464627  9572 net.cpp:110] Creating Layer pool2
I1028 15:52:43.465627  9572 net.cpp:477] pool2 <- relu2
I1028 15:52:43.465627  9572 net.cpp:433] pool2 -> pool2
I1028 15:52:43.466627  9572 net.cpp:155] Setting up pool2
I1028 15:52:43.466627  9572 net.cpp:163] Top shape: 100 32 8 8 (204800)
I1028 15:52:43.466627  9572 layer_factory.hpp:76] Creating layer conv3
I1028 15:52:43.466627  9572 net.cpp:110] Creating Layer conv3
I1028 15:52:43.467628  9572 net.cpp:477] conv3 <- pool2
I1028 15:52:43.467628  9572 net.cpp:433] conv3 -> conv3
I1028 15:52:43.471627  9572 net.cpp:155] Setting up conv3
I1028 15:52:43.471627  9572 net.cpp:163] Top shape: 100 64 8 8 (409600)
I1028 15:52:43.471627  9572 layer_factory.hpp:76] Creating layer relu3
I1028 15:52:43.472627  9572 net.cpp:110] Creating Layer relu3
I1028 15:52:43.472627  9572 net.cpp:477] relu3 <- conv3
I1028 15:52:43.472627  9572 net.cpp:433] relu3 -> relu3
I1028 15:52:43.473628  9572 net.cpp:155] Setting up relu3
I1028 15:52:43.473628  9572 net.cpp:163] Top shape: 100 64 8 8 (409600)
I1028 15:52:43.474627  9572 layer_factory.hpp:76] Creating layer pool3
I1028 15:52:43.474627  9572 net.cpp:110] Creating Layer pool3
I1028 15:52:43.474627  9572 net.cpp:477] pool3 <- relu3
I1028 15:52:43.474627  9572 net.cpp:433] pool3 -> pool3
I1028 15:52:43.476627  9572 net.cpp:155] Setting up pool3
I1028 15:52:43.476627  9572 net.cpp:163] Top shape: 100 64 4 4 (102400)
I1028 15:52:43.476627  9572 layer_factory.hpp:76] Creating layer ip1
I1028 15:52:43.476627  9572 net.cpp:110] Creating Layer ip1
I1028 15:52:43.476627  9572 net.cpp:477] ip1 <- pool3
I1028 15:52:43.476627  9572 net.cpp:433] ip1 -> ip1
I1028 15:52:43.478627  9572 net.cpp:155] Setting up ip1
I1028 15:52:43.478627  9572 net.cpp:163] Top shape: 100 64 (6400)
I1028 15:52:43.478627  9572 layer_factory.hpp:76] Creating layer ip2
I1028 15:52:43.478627  9572 net.cpp:110] Creating Layer ip2
I1028 15:52:43.478627  9572 net.cpp:477] ip2 <- ip1
I1028 15:52:43.478627  9572 net.cpp:433] ip2 -> ip2
I1028 15:52:43.479629  9572 net.cpp:155] Setting up ip2
I1028 15:52:43.479629  9572 net.cpp:163] Top shape: 100 10 (1000)
I1028 15:52:43.479629  9572 layer_factory.hpp:76] Creating layer ip2_ip2_0_split
I1028 15:52:43.479629  9572 net.cpp:110] Creating Layer ip2_ip2_0_split
I1028 15:52:43.479629  9572 net.cpp:477] ip2_ip2_0_split <- ip2
I1028 15:52:43.479629  9572 net.cpp:433] ip2_ip2_0_split -> ip2_ip2_0_split_0
I1028 15:52:43.480628  9572 net.cpp:433] ip2_ip2_0_split -> ip2_ip2_0_split_1
I1028 15:52:43.480628  9572 net.cpp:155] Setting up ip2_ip2_0_split
I1028 15:52:43.480628  9572 net.cpp:163] Top shape: 100 10 (1000)
I1028 15:52:43.480628  9572 net.cpp:163] Top shape: 100 10 (1000)
I1028 15:52:43.480628  9572 layer_factory.hpp:76] Creating layer accuracy
I1028 15:52:43.480628  9572 net.cpp:110] Creating Layer accuracy
I1028 15:52:43.480628  9572 net.cpp:477] accuracy <- ip2_ip2_0_split_0
I1028 15:52:43.481628  9572 net.cpp:477] accuracy <- label_data_1_split_0
I1028 15:52:43.481628  9572 net.cpp:433] accuracy -> accuracy
I1028 15:52:43.481628  9572 net.cpp:155] Setting up accuracy
…
